pretrain_results/pretrain_model.pth (torch, 64218 bytes, 9 tensors)

linearIn.weight f4 [70, 1]
00000000: 3d00 0a3e 5ac3 eb3d 1aba df3d 0f97 75be
00000010: 0d6a 5cbe 2452 933d 3f5a 08bd 0656 263e
00000020: c10f 133e c30e ec3d 90a0 4d3e 242e d43e
00000030: 0916 40bd 4704 e7bd e905 cabd ce1c 0ebe
00000040: 4211 cf3d 09de 363e 2e11 49bd 890a 8e3e
00000050: 8828 dd3d 7861 af3e 4382 c2bd 31c0 893e
00000060: cf7b 5dbd 30b8 e8bd d80a 4abc f4a9 c6bd
00000070: ab28 4ebe 3ca9 adbe cc9a 8b3c 3d04 7d3e
00000080: 8fbe 48be cbb3 66be 327c 903c 19ef e83d
00000090: fa24 e73c 077d 99bd 676f c23d 7952 833b
000000a0: e65a 953c 6263 f4bc 74d5 b4bd 2209 263d
000000b0: 2213 7e3c e085 073e 8ae2 c33e c014 62be
000000c0: ad6f 44be 06d3 833c ae69 3f3d 4b88 80bc
000000d0: 3084 16be 2f32 b3be 4cc3 20be 29d7 37be
000000e0: b1dd 623e 6aca 963d 625c a2bd e42f c4bd
000000f0: c053 b03d 2504 e43d afb5 93bc 4f8a 55bd
00000100: 8c8c 143e dfe0 b33d c1fc 5ebe dab8 093e
00000110: 9513 84be 773e 96ba
0.13476653 0.1151187 0.10924168 -0.23983406 -0.2152483 0.071934015 -0.03328919 0.16243753
0.14361478 0.11526253 0.20080781 0.41441453 -0.046896014 -0.11280113 -0.098644085 -0.13878176
0.101107135 0.17858137 -0.04908865 0.27742413 0.10798746 0.3425405 -0.09497502 0.26904443
-0.05407315 -0.11363256 -0.012331687 -0.09700385 -0.20132701 -0.33918178 0.017041586 0.24708648
-0.19603942 -0.22529523 0.017637346 0.11373729 0.028215874 -0.0749455 0.094939046 0.0040076342
0.01823182 -0.029832546 -0.088297755 0.040536053 0.015507491 0.13234663 0.38258773 -0.22078228
-0.19183226 0.016091835 0.046731643 -0.01568999 -0.14698863 -0.34999225 -0.156995 -0.17953171
0.22154881 0.07362826 -0.07927777 -0.09579447 0.08609724 0.11133603 -0.01803097 -0.052133854
0.1450674 0.08783125 -0.21776105 0.13449422 -0.2579619 -0.0011462708

linearIn.bias f4 [70]
00000000: b324 193c a8b7 32bc 71ff 013c 61be 333c
00000010: 9eb0 6a3c d90a adbb e26f e8bb 30ec 18bc
00000020: 8a76 703c 921b 7d3b 246c 26bb 5e86 223c
00000030: 6450 87bb a8b0 d13b e8af 9c3b 60be 12bd
00000040: f29a 84bc 748c 28bc 6f83 883c 2403 863c
00000050: 5a58 933c f0b1 91bc 71be 113c 7911 e4bb
00000060: 924e 353c 319d 1e3b b80c 733b 62f4 f9bc
00000070: 91cc 453c 311f 5ebc a01d adbb 6772 11ba
00000080: 3323 1f3c c945 b33b 70db 923c d3ab 03bc
00000090: 99eb 2f3c 1000 803c 9379 2f3c 55ff 343c
000000a0: 07b4 4dbc 3bdf bc3c 652a a3bc 5442 8f3c
000000b0: 5db4 d13c f036 31bc aac3 13bc 738c 923c
000000c0: e47a 7bbc 79cb 323c 0361 183c 66a0 9e3c
000000d0: 6ad4 2e3b 3c7f 4bbc 1f76 af39 690f 3f3c
000000e0: d037 66bc 66f1 98ba 05df b4bc 7c24 963c
000000f0: 8051 53bc e0ce a73b 773c 7f3c 97b7 96bc
00000100: 58b6 88bc fe33 23bb 66bf c2bc b014 a5bc
00000110: 221d 66b9 cc66 c3bb
0.009347129 -0.010908045 0.007934437 0.010970683 0.014324335 -0.005280834 -0.0070934156 -0.009333655
0.014676699 0.003862117 -0.0025394047 0.009919731 -0.0041294564 0.006399233 0.004781712 -0.035826087
-0.016187165 -0.010287393 0.016664235 0.01635892 0.017986465 -0.017785043 0.008895502 -0.0069600907
0.011066096 0.002420258 0.0037086438 -0.030512039 0.012072698 -0.013557241 -0.0052830726 -0.00055483583
0.009712982 0.0054709655 0.017926902 -0.008036572 0.010737323 0.01562503 0.010710138 0.011047204
-0.012555129 0.023055663 -0.019917676 0.017487682 0.0255987 -0.010816321 -0.009018818 0.017889237
-0.015349124 0.0109127695 0.009300473 0.019363593 0.0026676902 -0.012420472 0.00033466608 0.011661389
-0.014051393 -0.0011668622 -0.022079 0.018327944 -0.012897849 0.005121097 0.015578381 -0.01839809
-0.01668851 -0.0024902816 -0.023772907 -0.020151466 -0.00021945362 -0.005963182

linear.0.weight f4 [70, 70]
00000000: 5d27 92bd 50eb 61be 9b46 403e 83c5 bc3d
00000010: 0106 b13b db71 043d aaf8 13be 9f47 f6bd
00000020: 3ee5 40bd b658 073e e38f de3c 985b 68be
00000030: 6430 c23d 9de2 a7bd e83c 0d3e 4f81 d93d
00000040: ad98 2dbe 8085 013e e4f6 6d3e 2723 fabd
00000050: dc65 b5bc 1282 9abc 284e bc3d 3301 56bd
00000060: cbf3 733d 8e7c d9bd 3ab7 eb3d 554c 4abd
00000070: ff2f 363e d85b 383e df89 c0bd 8565 3abc
00000080: 84c5 72bd 0c2c 2bbe 23ac c5bd 2010 93bc
00000090: 8ca1 283b 2a51 e2bc 74ba febd e14e 0b3c
000000a0: 2110 35be 995a 193d f66d f5bc 5d49 14bd
000000b0: f66d afbd 8229 d43d ce08 11bc c4f8 fdbd
000000c0: dbae 7fbe 5441 99bd 473c 62bc 956b 193d
000000d0: 1ef8 a63d 1248 49be 0868 b8b9 db1c f13c
000000e0: 8e02 1c3e c9da 363d 0716 ae3c 6960 50bb
000000f0: c332 f93d a438 4dbb 80fb d9bd a002 df3c
00000100: 4e5e e73c 2e54 2c3d a52b d73d 812e 06bd
00000110: edea a73d 2cea 6b3d 99e2 b13d 14da 4bbd
00000120: 9117 d4bd 85f5 30bc f938 223e b501 07be
00000130: 1588 4f3e dc01 113e a002 b0bd f34a 8fbe
00000140: a364 83bd 7c45 a43c d99b 7fbd 0ebd 2bbd
00000150: bf40 aabd d17e 11be 46b3 473c 343a 0abe
00000160: 44ba 5b3d 10ee 8ebd 154a 6ebd c569 74be
00000170: c3eb 203e 1820 363b 7bb5 8e3d b387 debd
00000180: bd3a fa3d 3850 debc d7e7 2a3e e29b 20be
00000190: 1337 1c3e e0c3 4cbd e7a5 0a3e 2b22 5b3e
000001a0: a12a 753d d511 0fbd b0cc fabd f042 c33d
000001b0: 96b2 0cbe 286e 55be 004d 8fbd 9997 d1bd
000001c0: 201f 3dbe 0b26 183e 1b02 bcbc fdc8 26bd
000001d0: b115 633b a9e2 fa3d b5fa 213d c463 e5bd
000001e0: 3f35 42bd b860 7c3c 3e35 37bd 935b c0bd
000001f0: 21a6 2d3d 6886 0a3d a371 593e 43b4 35be
00000200: 2df8 9c3d 35b8 1a3c cff1 febc b4c0 513d
00000210: d719 933d 6e58 86bd dea9 90bd 17c2 e63c
00000220: 3593 30bd 329a 8cbd a79c 34bd 4e1a 8e3d
00000230: 3f21 e4bd e329 78be 15b4 37bd 3336 15bd
00000240: a898 143e 1f52 0e3e be95 eabc 165d 513e
00000250: 4da3 a63c 2d83 36be f615 b4bd f970 32bd
00000260: 63d1 3a3d da9a 1e3e 6bc9 f7bd 299e 66bd
00000270: 72eb c8bd 2800 713b 42f8 ae3b 9c0f cdbc
00000280: 85c5 853a 833a a7bc 60c8 5c3d d993 cf3c
00000290: 1473 513e 5c03 2ebe 899d 99bc 65e7 a93c
000002a0: 0cca a9be 5541 3c3e 32a2 84bd a0bd b2bd
000002b0: d6f1 183e 7bb9 13be d69f 923b c2a5 03bc
000002c0: 08d0 f7bd 9cbb 38bc 6783 edbd c1eb 313d
000002d0: 8aa8 b8bd c94e debd 45a2 443b a301 67be
000002e0: 96b7 043e 2b1a 27be 0791 dc3d d433 0d3d
000002f0: 9daf 843d 6a65 8dbd 7b1f 0fbd 5fbf f5bd
00000300: 5bc9 67be cb61 c6bd fff6 733b d1c2 18be
00000310: 33ac f43d 6ce5 c83d a804 063e f6bd 833e
00000320: 9c66 e23c 763b 2a3e 2a89 5e3d d897 6cbc
00000330: d343 793e 2c59 54bc 80e1 923d f9ca ffbd
00000340: 6354 63be e139 afbc 425a a83d b481 f93c
00000350: 6f81 e9bd d52f 8d3d 3410 e73d 8983 dc3c
00000360: b355 89bd e9e9 dcbc 9bbe 413d 5578 a03e
00000370: c063 e43c f4b1 c6bb 4cc7 c93d c7c2 f23d
00000380: ee4e 093e 7a25 a23e 9dd6 033e a2a6 1c3e
00000390: 3450 3fbd 7094 4bbd 55df 3bbe 1cb0 543e
000003a0: 5459 21be 53c4 e73c 3f3e c4bd 9be9 a3bc
000003b0: 1c9d 39be 81ae e03d 37c4 ba3d 80aa b73e
000003c0: fdb5 0b3e 5d7b c2bd c263 4e3c ab98 35bd
000003d0: 1303 433c e085 c73d 1b1a 0f3e 766e 50bd
000003e0: 1b02 663c 02e0 343e 108c 063e 950b ed3d
000003f0: 7d0a 033e 2893 fa3d 0699 993d 9fab 003e
-0.07136414 -0.22062421 0.18776934 0.0921736 0.005402327 0.032335144 -0.14450327 -0.120253794
-0.047093622 0.13217434 0.02716822 -0.2269119 0.09481886 -0.0819752 0.13792765 0.10620367
-0.16952772 0.12648582 0.23238713 -0.12213736 -0.022143297 -0.01886085 0.091945946 -0.052247237
0.05955867 -0.1061946 0.11509557 -0.049389202 0.17791747 0.18003786 -0.09401297 -0.011376743
-0.059270397 -0.16716021 -0.09651973 -0.017952025 0.0025731055 -0.027626593 -0.12437907 0.008502693
-0.17681934 0.037439916 -0.02995966 -0.036202777 -0.08565895 0.103594795 -0.008852197 -0.12400964
-0.24969046 -0.074831635 -0.013808317 0.037456114 0.08152793 -0.19656399 -0.00035172724 0.029432705
0.1523535 0.044642244 0.021250738 -0.0031795746 0.12167885 -0.0031314278 -0.10643673 0.027222931
0.02824321 0.042072468 0.105063714 -0.032759193 0.081991054 0.05759637 0.08685798 -0.049768522
-0.103560574 -0.010800724 0.15842046 -0.13184245 0.20266755 0.14160866 -0.08594251 -0.2798687
-0.06415679 0.020052664 -0.062404487 -0.041928343 -0.083131306 -0.14208533 0.012188738 -0.13498765
0.053644434 -0.069790006 -0.05817612 -0.23868473 0.15714936 0.0027790125 0.069682084 -0.10865726
0.12218235 -0.02713786 0.16690002 -0.15684465 0.15255384 -0.04999149 0.13539849 0.21399753
0.059855107 -0.034929115 -0.12246072 0.09534252 -0.1374 -0.20842803 -0.069971085 -0.10233993
-0.18468904 0.14858262 -0.022950223 -0.04071902 0.003465038 0.12250263 0.039545733 -0.112006694
-0.04741406 0.015403919 -0.04472851 -0.093924664 0.04239476 0.033819586 0.21234755 -0.17744546
0.07664523 0.009443332 -0.031121163 0.051209167 0.07182663 -0.065598354 -0.070636496 0.028168721
-0.043109138 -0.06865348 -0.044094708 0.06938611 -0.11139154 -0.24234729 -0.044849474 -0.03642864
0.14511359 0.13898514 -0.028635856 0.20445666 0.02034154 -0.17823477 -0.08793251 -0.04356477
0.045609843 0.15488759 -0.12098964 -0.056303177 -0.09810533 0.0036773775 0.005339653 -0.025031857
0.001020596 -0.020413643 0.05390203 0.025339054 0.20454055 -0.16993469 -0.018751876 0.02074022
-0.33161962 0.18384297 -0.06476249 -0.08727574 0.14936003 -0.14426224 0.0044746203 -0.008035125
-0.12100226 -0.011275198 -0.11597329 0.043437723 -0.09016521 -0.10854871 0.0030003947 -0.22559218
0.12960657 -0.16318576 0.10769849 0.034473255 0.06478808 -0.06904109 -0.03494213 -0.11999392
-0.22635405 -0.09686621 0.0037226079 -0.14918067 0.11946907 0.09809384 0.13087714 0.25730866
0.027636819 0.16624245 0.05433003 -0.014440499 0.24342279 -0.012960713 0.07171917 -0.12489886
-0.2220016 -0.021389904 0.0822034 0.030457355 -0.114016406 0.06893889 0.112823874 0.02691819
-0.06705799 -0.026967006 0.047300916 0.31341806 0.027879596 -0.006063694 0.09852466 0.11853557
0.13409016 0.31669217 0.12874837 0.1529794 -0.046707347 -0.049702108 -0.18346913 0.20770305
-0.15756732 0.028291857 -0.09582185 -0.020008853 -0.18126339 0.10970784 0.09119456 0.3587227
0.13643642 -0.09496186 0.012597026 -0.04433505 0.011902588 0.097423315 0.13974802 -0.050886594
0.014038588 0.17663577 0.13139367 0.11574475 0.1279697 0.12235099 0.0749989 0.12565468

linear.0.bias f4 [70]
00000000: af39 d73b 1d33 6dbc 2844 123c 28bc 67bc
00000010: b12d e6bb cb85 65bc 180d a5bb d864 033c
00000020: 3164 403c 8a6a 9bbb dea5 43bc f928 a5bb
00000030: e096 753c 3885 743c 833c d5bb fa70 cd3c
00000040: 0000 0000 0000 0000 9a81 10bb d2c9 c4bb
00000050: 52c1 283c 52eb 993b 9329 54bc 85b3 8b3c
00000060: d032 9dbb 8c8b 27bc dc4d 3dbb 6d59 4e3c
00000070: d68f 143d f82f f5bb ad3d dcbb 4827 b6bb
00000080: 127e 6c3b 1202 45bc 3c20 6fbc f3bf 97bb
00000090: 1279 473b 6e5e 9bbc 0000 0000 f18a 673c
000000a0: 2127 b6bb 9e67 90bc 306c a5bc 97ff bf3b
000000b0: f297 353c 4ab7 033c a59a b1bc 740e 0abc
000000c0: a0b1 20bc 2400 ff3b 0000 0000 903f 3bbc
000000d0: 2fa2 8ebc 45c7 433b e020 373d 35c0 a63c
000000e0: 66ad bb3c c5a5 a53c 4074 6c3c 05e6 5c3c
000000f0: c55b bb3c 1727 b6bb d477 ad3b 99b4 233c
00000100: 605e 67bc 0000 0000 0000 0000 0351 9e3c
00000110: a7a2 92bc 7815 1a3b
0.0065681557 -0.014477518 0.0089273825 -0.014143981 -0.00702449 -0.0140089495 -0.0050369613 0.0080196485
0.0117426375 -0.004742925 -0.011941401 -0.0050402847 0.014989585 0.01492434 -0.0065074577 0.025078285
0.0 0.0 -0.0022049905 -0.006005504 0.010299997 0.004697242 -0.012949365 0.017053375
-0.004797317 -0.010226142 -0.002888552 0.012594563 0.036269985 -0.007482525 -0.0067212195 -0.005558882
0.0036085886 -0.012024419 -0.014595088 -0.0046310364 0.0030437154 -0.018965926 0.0 0.014132247
-0.0055588637 -0.017627534 -0.02019319 0.005859326 0.01108359 0.008039305 -0.021680186 -0.008426297
-0.009807974 0.007781999 0.0 -0.011428729 -0.01741132 0.0029873413 0.044709086 0.020355323
0.022909831 0.020220647 0.014432013 0.013482575 0.022870908 -0.005558859 0.0052938256 0.009991788
-0.014121622 0.0 0.0 0.019325739 -0.017899824 0.0023511332

linear.1.weight f4 [70, 70]
00000000: 9e5e 28be 0249 d83d 248d eb3d 3251 6abd
00000010: 10c7 1f3e d552 16be 3d4a 81bd e66a 243e
00000020: 5928 063d de7c 31be 5e04 c03c cfb7 58be
00000030: df49 75bd 1209 2cbd e0c9 32bd ce0e 66be
00000040: 71a7 ddbd 2413 613d b25a 953c 5846 373d
00000050: 7a54 183e 6366 1abd 7b30 d0bd a2d3 713d
00000060: d4e9 9abd 292a 10be 64e2 253d 740e 133e
00000070: 6f98 493d 7d83 2ebe 7a62 963d 2b57 92bd
00000080: 91b0 49bd 8a7d f13a 359a 4bbd 08aa 0dbe
00000090: 82bf e6bd d77c 9e3d f0cd 673d c92f fcbd
000000a0: 3ca3 c3bd 35ee 15be 361d 7a3b 862f 49bd
000000b0: 622a 7eba 09cf 8d3e 6703 3d3e aaf7 cbbd
000000c0: ad78 3fbe 8e5c 733e 187e c6ba e24f 22bd
000000d0: a6f3 623e 7d53 e63d 7864 acbd 0302 063e
000000e0: bfc9 1c3e 7aa9 8f3d bc71 49be 591c 17be
000000f0: 3606 6c3d 6bca 82bd 734a 013d 14fa ba3d
00000100: 74fd 4cbd 5d5e d53d 62bf 04bd 0df1 653e
00000110: 92d4 a73d b9cd 57bd 8511 3bbd 1cdb 8f3c
00000120: 3e1b abbd 1219 e4bd 6cb0 6c3d b59f 9aba
00000130: 2bc2 4b3e b02a 7cbc ac70 1e3e 5290 3c3d
00000140: 2961 a43d f286 6f3e 8183 28be da4f 57be
00000150: 944a 933d 9e98 2ebe 0899 dbbd b518 23bd
00000160: 083a ac3d a13d 83be 3552 8b3e 263c d4bc
00000170: 955d e03d dadf 403e fc31 67bd 7545 203e
00000180: 39c6 0ebd 8b05 4dbe 4cff 58be 0d52 a63d
00000190: 6ddd 06bd 1795 ba3d 2c9d 793e 5185 983d
000001a0: 46f2 203d 4974 f3bd 9611 6bbc 12a4 ae3d
000001b0: daac 183c ef03 ae3d 5d89 453d bef6 7c3b
000001c0: 93f9 5cbd 68ef 753e 0911 b2bc e343 eebc
000001d0: 6094 21be f7da afba 1370 1fbd 52ea 7fbd
000001e0: 23f6 73bd 2bd2 03bd d57c 1ebd 53bc afbc
000001f0: 846e 863c 9255 163e 6836 80bd 4c29 e9bc
00000200: be24 063e aaa2 abbc bce8 0f3d 25db 523e
00000210: 84d6 0abe b09c 993d 7727 283e 2038 8bbd
00000220: 428d 76be 5f3e 0dbe 7283 b0bd 77a7 0d3e
00000230: e96b 2dbc 478c 893d d8d5 a7bc f1c0 a13d
00000240: a04c ecbc 0108 823d b151 673d 0b54 843d
00000250: cb5b e13d da51 4c3d 44f6 31be d517 e9bd
00000260: 9360 b93d 7d0e afbd 2128 353d 6ec6 1abe
00000270: 2d06 81be 9363 4e3d f78a 413e 5537 a73d
00000280: c6e1 2fbe 253e fb3d 8d4a 5c3d d7d9 0abd
00000290: 8f05 57be 1dbd 2abd 920d cdbd b2c6 64bd
000002a0: c015 623e b2ac c9ba a99e 6fbd 47f0 8d3d
000002b0: 2e00 65be 7d5b 103e 244c 953c 2824 16bc
000002c0: 7830 b93d 2a7a 4d3d 24f7 b03d 8524 55be
000002d0: 4246 35be 397a 083e 608a fbbd 3092 dcbb
000002e0: f795 a8be 4d46 183d 71ef 153e be09 883d
000002f0: cc28 15bc 850f 6abe a50d 85bd 300d 14be
00000300: 06d7 c23c c484 d43d ceb7 e2bd a360 2a3e
00000310: 4c10 5cbe d907 813d 66d3 a23d ecb9 c3bd
00000320: e8eb 04bd 1a7f caba 1782 11be e82f 38bd
00000330: fa03 23be 0776 af3c a0f8 35be 8364 0e3d
00000340: f271 d13d 2818 04be a961 b93c f887 1b3e
00000350: 45e9 ae3c 0e74 4d3d 36f5 8d3d c5f6 49bd
00000360: 72a1 a83d 4578 32bd 9291 8dbd f08c 35be
00000370: d056 5dbe ec85 3d3e 9f0f c4bc 4ecf 72be
00000380: 42e8 093e d0ea 1f3d c565 5a3d 8837 003d
00000390: b7e8 983c 6f1d 9ebd 2b01 9ebd 2f2d a2bb
000003a0: a435 f0bd 07aa f6bd 6a63 6bbe 4a69 9dbe
000003b0: 00cb b7bd 71d2 bd3d 386b 16be 9f35 583d
000003c0: 1a67 bbbd 6a36 cfbd 7e4c 51be 9f56 3dbd
000003d0: 2cff 083b f395 f23d 463e 933e d39e 263d
000003e0: c1e3 0e3e fd39 9fbb 7a10 123d 0042 1d3e
000003f0: 3298 22bd a9af 8f3d a455 c5be f1bf 113d
-0.16442344 0.105608 0.1150153 -0.05720634 0.1560328 -0.14680035 -0.06312988 0.16056404
0.032753322 -0.1733279 0.023439582 -0.21163867 -0.059884902 -0.042000838 -0.043649554 -0.22466585
-0.108229525 0.054949895 0.018231723 0.04474482 0.14875975 -0.0376953 -0.10165497 0.05903972
-0.075641304 -0.14078583 0.040499106 0.14360982 0.049217638 -0.17042346 0.07343002 -0.07145532
-0.049240652 0.0018424254 -0.04970761 -0.13834393 -0.11266996 0.07738655 0.05659288 -0.12313802
-0.09552619 -0.1464165 0.0038164384 -0.049117588 -0.00096956466 0.27697018 0.18458329 -0.099593475
-0.18698378 0.23765776 -0.001514378 -0.039626963 0.22163257 0.11246393 -0.084176004 0.13086705
0.15311335 0.07014747 -0.19672292 -0.14756908 0.05762311 -0.063862644 0.03156514 0.0912973
-0.0500464 0.10418389 -0.03240908 0.22455235 0.081948414 -0.052686427 -0.045671005 0.017560534
-0.083548054 -0.11137594 0.057785437 -0.0011796864 0.19898288 -0.015391037 0.15472668 0.046036072
0.08026344 0.23391321 -0.16456415 -0.21026555 0.07191959 -0.17050406 -0.10722548 -0.039818484
0.08409506 -0.25632957 0.27211156 -0.025907587 0.10955349 0.18835393 -0.056444153 0.15651496
-0.03485701 -0.20021646 -0.21191138 0.08121119 -0.03292601 0.09110468 0.24376363 0.07447303
0.03929355 -0.11887414 -0.0143474545 0.08527388 0.009318555 0.08496844 0.048226703 0.0038599218
-0.05394895 0.24017107 -0.021736639 -0.029085105 -0.15779257 -0.0013416697 -0.03892524 -0.062479325
-0.059560906 -0.032182854 -0.038693268 -0.021452105 0.01641012 0.1468108 -0.06260377 -0.028462075
0.13099954 -0.020951588 0.035134062 0.2059141 -0.13558394 0.07500589 0.16421305 -0.06797814
-0.24077323 -0.13793324 -0.08618821 0.13833414 -0.01058481 0.06716209 -0.02048771 0.07898129
-0.028845131 0.06349183 0.05647439 0.064613424 0.11003836 0.049882747 -0.17379099 -0.11381499
0.09051623 -0.08547685 0.044227723 -0.15114757 -0.25200024 0.05038793 0.18900667 0.081648506
-0.1717597 0.122677125 0.053782035 -0.033899155 -0.20998214 -0.04168426 -0.10012354 -0.055853553
0.2207861 -0.001538655 -0.05850092 0.06930595 -0.2236335 0.140974 0.018224783 -0.009163894
0.09042448 0.050165333 0.08640888 -0.20814712 -0.17702582 0.13327874 -0.12282252 -0.006731294
-0.32926914 0.03717642 0.14642121 0.06642483 -0.009103965 -0.22857483 -0.06496743 -0.14458156
0.023784172 0.103768855 -0.11070214 0.16638426 -0.21490592 0.06300325 0.07950477 -0.09556946
-0.03245154 -0.0015449256 -0.14209782 -0.044967562 -0.15919486 0.021418585 -0.17770624 0.034763824
0.102268115 -0.1289984 0.022629576 0.15188587 0.021351466 0.050159506 0.06931536 -0.049307603
0.08233918 -0.04357173 -0.06912531 -0.17729545 -0.21615148 0.18508118 -0.02393323 -0.23711893
0.13467506 0.039042294 0.05331971 0.03130296 0.018665655 -0.07720458 -0.077150665 -0.004949234
-0.11728981 -0.12044149 -0.22987142 -0.30744392 -0.08974266 0.09268654 -0.14689338 0.052785512
-0.091505244 -0.101178005 -0.20439336 -0.046225186 0.0020904047 0.11845007 0.28758448 0.04067881
0.13954069 -0.0048592077 0.035660245 0.15357208 -0.039695926 0.070159264 -0.385419 0.03558344

linear.1.bias f4 [70]
00000000: fbd2 913b e538 84bc 36bb 4dbc 0000 0000
00000010: a2b3 2fbc 8371 7abc 5027 b6bb 56f4 173c
00000020: 2412 4a3c 4cdb 373c 663a 28bc 14a1 9d3b
00000030: 6eaa 98bb 8c06 d33b c54a a6bb d767 cfbb
00000040: bc2e 1b3a 0000 0000 a9ea 6ebb 9e36 f03c
00000050: 6f1a 87bc 0ecc 1a3c 607c 3dbb b801 a23c
00000060: cab6 513c a4e3 823c f32b 4d3c a181 5bbc
00000070: 1707 ae3b 3203 f23b a480 663d 1b9a c23c
00000080: b518 03bc d4c9 c4bb d09e 5bbc 3241 fcbb
00000090: 4872 45bc 6d8f 01bc 0000 0000 d054 433c
000000a0: 0000 0000 4b55 5dbc 1d08 453c 0000 0000
000000b0: 76fa 43bc fbef c93c 5555 7a3c 4f39 8bb9
000000c0: bea4 8d3b 240f 54bc fe3e a93c d3c9 c4bb
000000d0: 516a a7bc 9a01 7d3c 7bc9 ab3c bfa4 8e3c
000000e0: fdf7 613c 989f 13bd 6b7a d23b 8dc4 a8b8
000000f0: 0000 0000 868b 993c 0000 0000 e820 f93b
00000100: 90e0 973a 2322 3cbc a425 e0bb 7a65 16bc
00000110: 55f3 12bb e4c6 e0bb
0.0044501997 -0.01614041 -0.012556842 0.0 -0.01072398 -0.015285852 -0.0055588856 0.009274563
0.012333427 0.011221718 -0.0102678295 0.004810462 -0.0046589887 0.0064399894 -0.005074831 -0.0063295173
0.0005919745 0.0 -0.0036455786 0.029322919 -0.016492097 0.0094480645 -0.0028913245 0.01977621
0.012799928 0.015977688 0.012522685 -0.013397605 0.005310904 0.007385635 0.056275025 0.023755124
-0.008001496 -0.006005505 -0.013404563 -0.0076982016 -0.012051173 -0.0079077305 0.0 0.011922076
0.0 -0.013509105 0.01202586 0.0 -0.01196157 0.024650564 0.015279134 -0.00026554844
0.0043226173 -0.012943063 0.02065992 -0.0060055046 -0.020436438 0.015442276 0.020970097 0.017412541
0.013792035 -0.036040872 0.0064232848 -8.047475e-05 0.0 0.018743288 0.0 0.0076027997
0.0011587311 -0.011482748 -0.0068404246 -0.009179467 -0.002242287 -0.006859647

linear.2.weight f4 [70, 70]
00000000: 112c 8d3c 61a3 c1bb 8048 79bd 4fbe a33c
00000010: f715 ffbd bfec 753d 8d13 59be ad24 dd3c
00000020: adab e63c a2c7 e5bd 7c1c 39be 5dde 98be
00000030: 1969 8e3c cab5 bbbd c23b 163d 8e93 7fbd
00000040: 1e91 003e f8a3 b23c 5cd8 a5bc d07c 9f3d
00000050: c292 593e dfff 12be 3f42 8a3d 277c f2bd
00000060: 1dbf debb c767 50be 3989 a63c 78a0 283d
00000070: 0c6f 8dbd 6841 f8bc 74d3 c73d cd02 473d
00000080: 7ed2 22be fb80 c3bd ae84 863d 6d0d 6b3d
00000090: ef02 20be c20e 013e d5f0 89bc f89f d6bd
000000a0: aeeb 4d3e 8903 7cbd 5762 813d ff50 b6bd
000000b0: 9567 8a3d 073a 23be 75f2 1bbd ebcd 1bbe
000000c0: cb54 3abd 1067 643c e1ac 67bd 8481 603e
000000d0: 9204 48bd 823a 34be 2801 4b3e 684e 21bd
000000e0: 0e54 3fbe f0aa 803e f49f 1b3e d413 813e
000000f0: fe2d 243c a99c 66be 66ac a8bd a1e6 d93d
00000100: ff8a 28bd eaa9 173e 7b88 0f3e 26cf 1dbe
00000110: 34b9 87bd e4a2 b43d 3626 0dbd 3908 80bd
00000120: 958f 2bbc c9c2 99bc 596e 1d3e 2477 a33d
00000130: 3b4f ea3b 73b9 8bbd e8c5 b43d cf9e 98bd
00000140: f445 dd3c a37e 69be 0d80 853c c5ba 4fbe
00000150: e0a0 54ba 3ce0 23bd 47ff 4c3d f65f 1abe
00000160: 1145 d23d d740 b73c 4f62 ec3c 3eea 9f3c
00000170: fe00 1dbd f639 153d 22fc 66be af02 213d
00000180: e00a af3d 4ff7 3c3e 1012 9c3d 89a1 8a3d
00000190: b0d6 9b3c 210d 7ebd b981 5b3c fab3 9dbc
000001a0: 45e6 a6be eed2 c0bd 7e2a 96bd abfe 153c
000001b0: ec4a e33c 477a d2bd f885 823d 6e84 093c
000001c0: 6303 9e3d 846c 50bd 99c7 c8bd 280d d33c
000001d0: 1df5 fb3d 3878 45bd e533 7b3e 1f8c e93c
000001e0: 5712 1f3e 9704 fe3d 93f9 7dbc 4817 eebd
000001f0: 4243 0a3d be66 d2bd bafb f43c 8078 023e
00000200: 6ba8 f13c d808 c53d 4c4c e8bc d830 95be
00000210: c5ba c73d b945 3dbd 9354 63bc 2305 0c3e
00000220: cf9c 9dbd 3f89 e3bd e694 20be cfc8 9b3c
00000230: 73d3 33be 9ba8 f1bd 149e f0bd 9b7f 49bc
00000240: 29a4 ed3d 61e7 f4bc af18 38be e269 793d
00000250: 2139 673d f06e bd3d fc1e 21be 3cb4 27be
00000260: 3dd8 ab3d 91be c43a ddc6 fbbd 8685 853e
00000270: d6bf 4dbe 6c0d 3e3e 44d3 0c3d 3403 263e
00000280: d8a8 553b 72bd 3c3b 4796 d1bd eaf0 113e
00000290: 52b6 afbd 4f4d b63d d055 263e 4e1a bebc
000002a0: 139f 0cbc c3b7 973e f975 733e 2213 403d
000002b0: 94c8 22bd f942 a93d e0de 023e c864 37bd
000002c0: 923e 9dbd 2946 eabd f608 a93e b15b 3ebd
000002d0: a976 71be 047e babd 08d9 333d 230d 003e
000002e0: 2b31 12be a8c7 d03c f858 91bc a8fa c83c
000002f0: c61a a1bc 5a4d 193e 9502 febd d0a4 dabd
00000300: 7a8c 8d3d f4cc 88bd 58d1 9dbd f6e9 79bd
00000310: 2abd 4cbe e6cb b03d b92b f2bd dae7 343e
00000320: 29e9 12bd 8842 4b3d 3f85 353e 57df 01bb
00000330: 290a abbd 0445 da3d 5b98 05be 4fd3 b3be
00000340: 7d93 94bd fe16 24bd 833d 033e e974 d73d
00000350: d4a0 8dbd 74fe 263e 2a98 903d a41b a73c
00000360: 2a80 23be e7f5 633d ff17 1a3d 75e3 debd
00000370: 489e d63d 2b02 103e bb2d 0ebe 7b39 babb
00000380: cefa ddbd 2f1a 803e 0d3c 1abe a9b7 29bd
00000390: 405a 1a3e f260 ea3d f8b9 b23d 7005 25be
000003a0: 0458 4c3d f8f5 ee3c e34c c43d fdca a8bd
000003b0: 8328 9b3d 34b5 83bd e239 953d 8170 45bd
000003c0: fc34 f8bd 319a 1ebb 1de9 b6be 0a2c f6bd
000003d0: 84a4 0b3e 3d56 cf3d 3a07 45be 15a9 8b3d
000003e0: 662a aabd f70c 2e3e 71c6 5e3d bc35 fd3d
000003f0: f2c0 593d 60a2 4c3d 5d11 87bd 53f3 993d
0.017232927 -0.005909369 -0.060860157 0.019988207 -0.12455361 0.06004023 -0.21198864 0.026995027
0.028158033 -0.112197176 -0.18077272 -0.2985715 0.017384099 -0.09165533 0.036678083 -0.06239658
0.12555358 0.021806702 -0.02024477 0.07787478 0.2124739 -0.1435542 0.06750917 -0.118400864
-0.006797685 -0.20352088 0.020329105 0.04116866 -0.06905946 -0.030304626 0.09757128 0.048586655
-0.15900609 -0.095460854 0.065682754 0.05738585 -0.15626119 0.12603286 -0.01683847 -0.1047973
0.20109436 -0.06152681 0.06317585 -0.089021675 0.06758038 -0.15940104 -0.038073022 -0.1521527
-0.04549102 0.013940588 -0.056561355 0.21924406 -0.048832484 -0.17600444 0.1982466 -0.039381415
-0.18684408 0.25130415 0.15197736 0.2521044 0.010020731 -0.22520699 -0.082360074 0.10639692
-0.041148182 0.14810911 0.14016907 -0.15411052 -0.066271216 0.088201314 -0.03446027 -0.06251568
-0.010471244 -0.018769639 0.15374126 0.07981709 0.0071505583 -0.06822481 0.0882681 -0.07452165
0.027010895 -0.22802214 0.016296411 -0.2028609 -0.00081111304 -0.04000877 0.05004814 -0.15075669
0.102670796 0.022369785 0.028855471 0.019520875 -0.038331024 0.03643223 -0.22557119 0.0393092
0.08546996 0.18453716 0.07620633 0.06769092 0.01902327 -0.06202424 0.0133976275 -0.019250859
-0.32597557 -0.09415232 -0.073323235 0.009154956 0.027745686 -0.10277229 0.06373209 0.00839339
0.0771549 -0.05088474 -0.09803695 0.02576311 0.12302611 -0.048210353 0.24531515 0.028509198
0.1553434 0.12403219 -0.015501398 -0.11625534 0.03375555 -0.10273503 0.029905189 0.1274128
0.029499253 0.096208274 -0.028356694 -0.29138827 0.0975242 -0.04620907 -0.0138751445 0.13673835
-0.076959245 -0.11110162 -0.156818 0.019016651 -0.1756113 -0.11799737 -0.11748901 -0.01229849
0.11603577 -0.029895486 -0.17978166 0.060891993 0.056450967 0.09249675 -0.15734476 -0.16377348
0.083908536 0.0015010406 -0.122937895 0.26078433 -0.20092711 0.18559808 0.034381166 0.1621216
0.003260186 0.0028799442 -0.10233741 0.14252058 -0.08579697 0.08901464 0.16243672 -0.023205902
-0.008582848 0.29632387 0.23775472 0.046893246 -0.039742067 0.08264727 0.12780333 -0.044773847
-0.0767795 -0.11439163 0.3301465 -0.046474162 -0.23580422 -0.09106067 0.04390815 0.12505011
-0.14276569 0.025485829 -0.017742619 0.024533585 -0.019666087 0.14970914 -0.12402836 -0.10675967
0.069115594 -0.06679717 -0.07705945 -0.06101414 -0.19994035 0.086326405 -0.11824746 0.1766657
-0.03586689 0.049623996 0.1772661 -0.0019816959 -0.08351547 0.10657695 -0.130464 -0.35122153
-0.07254694 -0.04006099 0.12816434 0.10520346 -0.06915441 0.16308004 0.07060273 0.020398922
-0.1596686 0.055654433 0.03762054 -0.10883228 0.104794085 0.14063327 -0.13884632 -0.0056831217
-0.10838853 0.25019976 -0.1506197 -0.041434918 0.1507349 0.11444272 0.08726877 -0.16115355
0.049888626 0.029170021 0.095849775 -0.08241842 0.07576086 -0.06431046 0.07286431 -0.048202995
-0.12119481 -0.0024200792 -0.35724726 -0.120201185 0.13636976 0.101238705 -0.19241038 0.06819359
-0.08308868 0.16997133 0.054388467 0.12363765 0.053162523 0.04995954 -0.06595109 0.075171135

linear.2.bias f4 [70]
00000000: 0000 0000 9f1c 303c 6a75 3c3c 36a0 7b3c
00000010: 4836 afbb 9665 d1bb 6b8a 44bc 4e40 d6bb
00000020: 003f b63c dc71 69bc 373d 8a3b 0000 0000
00000030: d1be 313c aa5b 08bc d0a3 babc 2ece 60bc
00000040: 9b81 013c cc01 acbb 8ffa 613c 0000 0000
00000050: 540d 793c fedb 743c 538d 483c 6e72 6d3c
00000060: a53c 21bc 612c f9bb 0000 0000 a4f6 fd3b
00000070: 5527 b63b 12bb a33b 1f74 743c 192f 49bc
00000080: 9902 59bc 4528 73bc bd62 a23b 2ba4 90bb
00000090: d42a 3bbc 1c10 d6bc c3a0 3bbd e0e7 66bc
000000a0: 758b 4c3a 012e c539 fcd8 8e3c dc72 7b3b
000000b0: 95a3 653b 98b5 493c f90a 6e3c 4596 413b
000000c0: 5860 493c a5ec ebbb de04 c63a c616 2c3c
000000d0: 0d08 573c 7f97 4e3c 5989 9b3b cba9 083d
000000e0: ed37 7c3c e675 bb3b 0000 0000 2fff 04bc
000000f0: 0000 0000 6f3a cf3c 85e3 c23b 3914 f23b
00000100: f56b e73c cdfb 2cbc 588a 533c f8d4 47bc
00000110: 4f27 b63b 7a5b 56bc
0.0 0.010749011 0.011502603 0.0153580215 -0.005347047 -0.006390284 -0.011995892 -0.0065384274
0.022246838 -0.014248338 0.004218723 0.0 0.010848717 -0.008322636 -0.02278319 -0.013721032
0.0079044355 -0.0052492376 0.013792648 0.0 0.015200932 0.014945028 0.012240726 0.014492614
-0.009841119 -0.0076041673 0.0 0.007750349 0.005558888 0.0049966658 0.014920264 -0.012279295
-0.013245248 -0.014841144 0.004955618 -0.0044141016 -0.011423785 -0.026130728 -0.04580761 -0.014093369
0.0007802763 0.00037609044 0.01743745 0.0038368022 0.003504013 0.012311362 0.014528983 0.002953903
0.012291037 -0.007199841 0.0015107652 0.0105034765 0.013124478 0.012609362 0.0047465977 0.033365052
0.015394193 0.0057208417 0.0 -0.008117481 0.0 0.025296418 0.0059475326 0.0073876646
0.02824972 -0.010558081 0.012911402 -0.012196772 0.005558885 -0.013083333

linearOut.weight f4 [1, 70]
00000000: 3b1c 733e 0224 db3c 0799 ad3d adfa 833e
00000010: dbd8 243e 3764 8e3c 38e7 3f3e fe44 c7bd
00000020: c0f4 8a3e 4568 863c 4cd5 32bd 5a28 a5bd
00000030: 23cd 8f3c 652d d13d 4858 77bc 736f 90be
00000040: f64e 4cbd 27ca cb3d bc58 2fbe 9191 353e
00000050: 2d6a d9bd 5a3c 09be e829 4bbe 8ddb c7be
00000060: 077f 63bd 5982 7f3e fd3f 393d 33b5 1fbe
00000070: 0449 053e 6bf7 123e eadc 02be 11ae 1b3b
00000080: 374e 15be b808 8cbd 90fa 55be f9fc 1c3d
00000090: 101d 4d3e 51f9 d6bc 701a 99bd d595 81bd
000000a0: e2ad 6fbe 42fb a23e 1deb 3c3e 7309 d53b
000000b0: d841 943d a987 c7bd 2261 4b3d d993 06be
000000c0: 6d27 0b3d 76d4 1e3e 4bbe 0cbe a71b 2e3e
000000d0: dcb7 25be c289 8b3c 411d d13e 7ed5 273e
000000e0: 1420 90be 30f1 d9bd 6fe0 b33c ca1e d2bc
000000f0: 8c8c a23e 5d74 f33d b2ec f1bd a7fd 033e
00000100: 91e8 76bd aa8d 083e 4c7a 803e e4f3 87be
00000110: 06d0 fdbd 1935 833e
0.23741238 0.026750568 0.08476453 0.25777188 0.16098349 0.01738177 0.18740547 -0.09729956
0.27139854 0.016407141 -0.043660447 -0.08064337 0.017553871 0.102137364 -0.0150967315 -0.2821003
-0.04987999 0.09950667 -0.17123693 0.1773131 -0.106159545 -0.13401929 -0.19840205 -0.3903469
-0.055541065 0.24952067 0.04522704 -0.15596466 0.13016135 0.14352195 -0.12779585 0.0023754875
-0.14580618 -0.068376005 -0.20896363 0.03832719 0.20030618 -0.02624193 -0.07475746 -0.06327406
-0.23406175 0.3183232 0.18449064 0.0065013706 0.07239121 -0.09742672 0.04965318 -0.13142337
0.033973146 0.15510735 -0.13744466 0.17002736 -0.16183418 0.017033461 0.4084263 0.16390035
-0.28149474 -0.10641706 0.021957604 -0.025649447 0.31747854 0.11887429 -0.11812724 0.1288973
-0.060280386 0.1333529 0.25093305 -0.2655326 -0.12393193 0.25626448
