results/model.pth (torch, 64092 bytes, 9 tensors)

linearIn.weight f4 [70, 1]
0.08806092 0.1146302 0.0957863 -0.24820995 -0.2094299 0.078983195 -0.033990566 0.1440632
0.10222303 0.09829558 0.2206092 0.4502516 -0.048102744 -0.11131442 -0.10299927 -0.14991695
0.09872983 0.17669094 -0.06484541 0.27690527 0.1233411 0.33178207 -0.0920537 0.3155874
-0.04825373 -0.115832314 0.00042478318 -0.106437534 -0.20616773 -0.33500928 0.048146546 0.23405276
-0.20255175 -0.2255613 0.023001587 0.15182531 -0.0054092174 -0.08762983 0.081527166 0.0075244396
-0.007828168 -0.036360804 -0.09673132 0.021737404 0.014286621 0.12816118 0.39830473 -0.20661363
-0.1806406 -0.0058631687 0.050135307 -0.035155196 -0.13825232 -0.3427467 -0.1449559 -0.1804345
0.22115478 0.09175175 -0.08337123 -0.08647237 0.055347238 0.13224554 -0.022432227 -0.053450588
0.15643062 0.12483411 -0.22280632 0.121464655 -0.25806192 -0.0011462708
00000000: 4959 b43d 3dc3 ea3d 9c2b c43d c02a 7ebe
00000010: cb74 56be f1c1 a13d b139 0bbd 4e85 133e
00000020: 4f5a d13d 314f c93d 61e7 613e 6187 e63e
00000030: 6207 45bd d1f8 e3bd 48f1 d2bd d483 19be
00000040: dd32 ca3d 78ee 343e accd 84bd 87c6 8d3e
00000050: 429a fc3d 57df a93e a686 bcbd ac94 a13e
00000060: b4a5 45bd 7e39 edbd 6fb5 de39 ecfb d9bd
00000070: a21d 53be 5686 abbe 5035 453d 87ab 6f3e
00000080: ba69 4fbe 8bf9 66be d36d bc3c 1878 1b3e
00000090: ce3f b1bb 4577 b3bd b7f7 a63d 938f f63b
000000a0: b741 00bc 11ef 14bd 121b c6bd a412 b23c
000000b0: 6e12 6a3c af3c 033e 99ee cb3e 8692 53be
000000c0: d9f9 38be d31f c0bb ae5a 4d3d e5fe 0fbd
000000d0: 0492 0dbe 7f7c afbe 526f 14be d2c3 38be
000000e0: 6676 623e 57e8 bb3d 89be aabd 6d18 b1bd
000000f0: c9b3 623d 606b 073e cac3 b7bc 01ef 5abd
00000100: 592f 203e 07a9 ff3d 5727 64be 76c2 f83d
00000110: b120 84be 773e 96ba

linearIn.bias f4 [70]
-0.038952924 -0.0210813 -0.027219594 0.038171176 0.03320611 0.0046634297 -0.023403091 -0.038877536
-0.027241826 -0.0011914367 0.015868641 0.023672005 -0.011207328 0.018029025 0.011471363 -0.0074276486
-0.0009932814 0.008991004 0.0008072336 0.013876502 0.022343418 0.016223446 0.011167589 0.015798923
0.021957247 0.023119703 -0.027148375 0.001853838 0.002260529 0.009029914 0.0062031397 -0.013693198
0.020729141 0.026370179 0.010896518 0.03695151 -0.021856133 0.025621194 -0.037125677 0.033152543
-0.034328274 0.018214686 0.00069989037 -0.009226491 0.02859912 0.0063301004 0.020224113 0.049295582
-0.06133793 0.027665753 -0.006456866 -0.017368099 0.024214737 -0.026055638 0.021473885 0.014054664
0.011297224 0.032620378 -0.021564215 0.028043013 -0.04339864 0.0063938578 0.0041701985 0.008040429
0.007832403 0.005588389 -0.011393539 -0.0165489 0.0072261533 -0.005963182
00000000: 1a8d 1fbd b1b2 acbc a0fb debc 6159 1c3d
00000010: 2103 083d afcf 983b d7b7 bfbc 0d3e 1fbd
00000020: 402a dfbc fb29 9cba f4fe 813c cbeb c13c
00000030: f19e 37bc 9bb1 933c 62f2 3b3c a263 f3bb
00000040: fe30 82ba 014f 133c 889c 533a 455a 633c
00000050: 8b09 b73c 08e7 843c 43f8 363c be6c 813c
00000060: afdf b33c 8865 bd3c 4566 debc 7bfc f23a
00000070: 6225 143b 34f2 133c b543 cb3b 6f59 60bc
00000080: 29d0 a93c 4606 d83c 4f87 323c 775a 173d
00000090: a20b b3bc 8ae3 d13c 1811 18bd f6ca 073d
000000a0: ce9b 0cbd f736 953c d978 373a b52a 17bc
000000b0: b448 ea3c bb6c cf3b 0aad a53c 2aea 493d
000000c0: 7b3d 7bbd 4aa3 e23c 1e94 d3bb 8b47 8ebc
000000d0: fc5d c63c a272 d5bc 00ea af3c 8945 663c
000000e0: fe17 393c f29c 053d 70a7 b0bc 76ba e53c
000000f0: c6c2 31bd 9183 d13b 29a6 883b 01bc 033c
00000100: 7b53 003c ce1e b73b f7ab 3abc 8f91 87bc
00000110: 5ec9 ec3b cc66 c3bb

linear.0.weight f4 [70, 70]
-0.08132688 -0.22062421 0.17884287 0.10350098 0.01724671 -0.080113254 -0.13755369 -0.120253794
-0.08030266 0.14944701 -0.06566775 -0.31285036 0.10078718 -0.071287565 0.14836651 0.104492866
-0.048892662 -0.00951701 0.24281599 -0.2559399 -0.035310764 -0.18973815 0.10412511 -0.17121756
0.07442785 -0.094945855 0.12927482 -0.050461743 0.18863647 0.18638954 -0.10347168 -0.05585702
-0.048616014 -0.15689932 -0.07538888 -0.04019718 0.010662432 -0.0135754375 -0.13577338 0.059338544
-0.17681934 0.05693042 -0.029323861 -0.029468823 -0.053277068 -0.15348093 -0.098481104 -0.11140519
-0.24183442 -0.046211194 -0.03584153 0.048429523 0.09153547 -0.19098794 0.009617886 0.040778995
-0.03908599 0.011909393 0.02637774 0.010621355 0.12167885 -0.15897043 -0.08745936 0.025310034
-0.0869762 -0.21990639 0.107557565 -0.032759193 0.08980486 0.05759637 0.078783736 -0.049768522
-0.110528156 -0.016190847 0.1527152 -0.13184245 0.20817271 0.14160866 -0.10263262 -0.2798687
-0.06415679 0.020052664 -0.06047646 -0.04579176 -0.08954182 -0.13500927 0.012188738 -0.13498765
0.036818184 -0.07463849 -0.09494989 -0.23868473 0.15016161 0.0027790125 0.054747347 -0.111640446
0.1260324 -0.01984972 0.16168547 -0.15696415 0.15255384 -0.04999149 0.13010599 0.21041201
0.014543443 -0.034929115 -0.15012771 0.0820793 -0.15577905 -0.25848004 -0.069971085 -0.13379706
-0.17817733 0.10736102 -0.07489507 -0.04071902 0.003465038 0.11591565 0.04241028 -0.16812284
-0.10157452 -0.016866408 -0.047700256 -0.09388265 0.040436376 0.027950047 0.21234755 -0.17744546
0.08472552 -0.0020497178 -0.031121163 0.051209167 0.038567867 -0.05974975 -0.070636496 0.028168721
-0.039975103 -0.06865348 -0.04654796 0.06938611 -0.10469044 -0.24212177 -0.036079478 -0.1170702
0.05649362 0.14441371 -0.028635856 0.20247425 0.029658977 -0.17532355 -0.07540258 -0.03018794
0.037501223 0.062110845 -0.19069062 -0.057462998 -0.10681754 0.008854105 -0.037568826 -0.011279324
0.02109717 -0.015385603 -0.023984186 0.035786867 0.17463349 -0.23507255 -0.015734406 -0.058502886
-0.41656467 0.08623135 -0.059433684 -0.08522836 0.07067887 -0.22682227 0.03203428 0.0021872337
-0.102573894 -0.043373633 -0.10286829 0.063747935 -0.09016521 -0.09709604 -0.06977558 -0.19625804
0.15516022 -0.16293117 0.11868512 -0.04226528 0.062128823 -0.04847876 -0.0183045 -0.088326186
-0.29295763 -0.124031134 -0.08459658 -0.23102012 0.12195127 0.11240249 0.13087714 0.2077421
0.04774793 0.17434894 0.074913144 -0.08012715 0.24690682 -0.011057414 0.061912574 -0.13175151
-0.30118507 -0.021389904 0.07342664 0.015859306 -0.12456568 0.07101947 0.11529607 0.01268486
-0.06444173 -0.040981244 0.039579947 0.30180973 0.01613172 -0.017795265 0.10224069 0.120621406
0.13595147 0.32190534 0.110819936 0.13981518 -0.045535784 -0.058113582 -0.19436069 0.19545777
-0.15634428 0.017090678 -0.09537425 -0.018340668 -0.18236709 0.11554506 0.09305257 0.36293417
0.09791351 -0.105840564 0.014176996 -0.04219808 0.0031979405 0.08057256 0.1284555 -0.05029092
0.0047096335 0.16707583 0.1353843 0.12008326 0.1334956 0.11744191 0.06588007 0.11114319
00000000: b58e a6bd 50eb 61be 9622 373e 52f8 d33d
00000010: f948 8d3c 6b12 a4bd e0da 0cbe 9f47 f6bd
00000020: b975 a4bd a308 193e d07c 86bd ec2d a0be
00000030: 8269 ce3d 37ff 91bd 64ed 173e 5b00 d63d
00000040: ac43 48bd 3ced 1bbc c1a4 783e 8e0a 83be
00000050: 05a2 10bd b84a 42be 8c3f d53d a853 2fbe
00000060: a16d 983d f972 c2bd 9e60 043e f9b0 4ebd
00000070: eb29 413e e6dc 3e3e f6e8 d3bd 55ca 64bd
00000080: 9621 47bd 37aa 20be 7c65 9abd cca5 24bd
00000090: 7bb1 2e3c 836b 5ebc 2d08 0bbe f90c 733d
000000a0: 2110 35be df2f 693d 9838 f0bc 9a68 f1bc
000000b0: 0e39 5abd 1b2a 1dbe 76b0 c9bd 6728 e4bd
000000c0: 71a3 77be f347 3dbd 91ce 12bd 095e 463d
000000d0: f376 bb3d 5892 43be 5694 1d3c e007 273d
000000e0: a218 20bd 9d1f 433c 2116 d83c 3105 2e3c
000000f0: c332 f93d 25c9 22be e51d b3bd fd56 cf3c
00000100: 9420 b2bd 242f 61be 2447 dc3d 812e 06bd
00000110: 9ceb b73d 2cea 6b3d 5e59 a13d 14da 4bbd
00000120: 965c e2bd aba2 84bc 6061 1c3e b501 07be
00000130: 3a2b 553e dc01 113e 0d31 d2bd f34a 8fbe
00000140: a364 83bd 7c45 a43c 2ab6 77bd 2490 3bbd
00000150: b461 b7bd df3f 0abe 46b3 473c 343a 0abe
00000160: aace 163d 11dc 98bd 1775 c2bd c569 74be
00000170: f7c3 193e 1820 363b c13e 603d bfa3 e4bd
00000180: a30e 013e e19b a2bc e090 253e 36bb 20be
00000190: 1337 1c3e e0c3 4cbd 813a 053e 3f76 573e
000001a0: 9f47 6e3c d511 0fbd 14bb 19be 3119 a83d
000001b0: 8b84 1fbe 7f57 84be 004d 8fbd 1902 09be
000001c0: 1e74 36be 18e0 db3d 9662 99bd fdc8 26bd
000001d0: b115 633b 2f65 ed3d 67b6 2d3d 6528 2cbe
000001e0: 4d06 d0bd 6c2b 8abc 5861 43bd 8c45 c0bd
000001f0: 9da0 253d 7ff7 e43c a371 593e 43b4 35be
00000200: 9384 ad3d 8f54 06bb cff1 febc b4c0 513d
00000210: 57f9 1d3d 27bc 74bd dea9 90bd 17c2 e63c
00000220: efbc 23bd 329a 8cbd 13a9 3ebd 4e1a 8e3d
00000230: f167 d6bd c5ee 77be 13c8 13bd 80c2 efbd
00000240: db65 673d 30e1 133e be95 eabc 6955 4f3e
00000250: 62f7 f23c 0488 33be ab6c 9abd b34c f7bc
00000260: e29a 193d f167 7e3d 6744 43be 525e 6bbd
00000270: 28c3 dabd cf10 113c c5e1 19bd eacc 38bc
00000280: f9d3 ac3c e513 7cbc 7c7a c4bc 4095 123d
00000290: 1fd3 323e dcb6 70be 71e5 80bc b9a0 6fbd
000002a0: f747 d5be 109a b03d bc70 73bd 358c aebd
000002b0: 15c0 903d 1944 68be 6136 033d b157 0f3b
000002c0: 4312 d2bd 8da8 31bd 9cac d2bd 478e 823d
000002d0: 8aa8 b8bd 4ada c6bd 80e6 8ebd def7 48be
000002e0: 52e2 1e3e 6ed7 26be 2f11 f33d 5c1e 2dbd
000002f0: cb7a 7e3d aa91 46bd 52f3 95bc 5ce4 b4bd
00000300: 8bfe 95be 0904 febd f940 adbd 8a90 6cbe
00000310: 96c1 f93d 4733 e63d a804 063e 58ba 543e
00000320: 5593 433d 8788 323e 106c 993d b419 a4bd
00000330: 24d5 7c3e 282a 35bc 0a98 7d3d dee9 06be
00000340: ee34 9abe e139 afbc b560 963d 60eb 813c
00000350: 4b1c ffbd a872 913d 5920 ec3d 29d4 4f3c
00000360: 07fa 83bd f3db 27bd 951e 223d ce86 9a3e
00000370: ab26 843c 60c7 91bc 9163 d13d 5b08 f73d
00000380: dd36 0b3e c7d0 a43e 90f5 e23d b62b 0f3e
00000390: bb83 3abd 8208 6ebd 7d06 47be 1526 483e
000003a0: b718 20be c001 8c3c 9353 c3bd 2b3f 96bc
000003b0: 70be 3abe e3a2 ec3d 5992 be3d 82d2 b93e
000003c0: e186 c83d f0c2 d8bd a246 683c e5d7 2cbd
000003d0: 8a94 513b 3a03 a53d d789 033e dafd 4dbd
000003e0: 4553 9a3b ed15 2b3e 2fa2 0a3e 36ee f53d
000003f0: 12b3 083e 6285 f03d 21ec 863d 0a9f e33d

linear.0.bias f4 [70]
0.031118529 -0.065912 0.03264623 -0.020602766 -0.011759765 0.024408627 -0.0050369613 0.019403215
0.019012012 -0.004742925 0.015163635 -0.010823628 0.039928097 0.011672833 -0.0065074577 0.041109215
0.0 -0.022929527 0.0023970178 0.020264432 -0.014767189 0.0122885145 -0.029002389 0.040485684
0.018950935 0.0032375292 -0.03543809 0.023645071 0.05168224 0.013280954 -0.016979571 -0.005558882
0.021167878 0.012129586 -0.010915515 0.030724242 -0.02297632 -0.023251155 0.0 0.064117745
-0.0055588637 -0.012358101 -0.036888175 0.04193917 0.037050944 -0.010125946 -0.046435192 0.017953975
-0.03301789 0.039479595 0.0 0.0080735935 0.00020386223 0.0046238303 0.03514679 0.03427363
0.026509715 0.0071428865 0.029855505 0.026297797 0.04066644 -0.005558859 0.0038965507 0.023319209
-0.022283677 0.0 -0.024093257 0.02058537 -0.0123204 -0.0013952905
00000000: 49ec fe3c dffc 86bd 0eb8 053d 22c7 a8bc
00000010: 08ac 40bc 9af4 c73c 180d a5bb 7ef3 9e3c
00000020: 14bf 9b3c 8a6a 9bbb e570 783c 9655 31bc
00000030: a58b 233d 693f 3f3c 833c d5bb 2362 283d
00000040: 0000 0000 b4d6 bbbc 4917 1d3b 9801 a63c
00000050: 14f2 71bc c455 493c 6b96 edbc 51d4 253d
00000060: fe3e 9b3c ba2c 543b 8827 11bd 4fb3 c13c
00000070: c2b0 533d 5c98 593c be18 8bbc 4827 b6bb
00000080: 4268 ad3c 2cbb 463c fdd6 32bc 68b1 fb3c
00000090: d638 bcbc 3579 bebc 0000 0000 2a50 833d
000000a0: 2127 b6bb a279 4abc 0e18 17bd 68c8 2b3d
000000b0: bbc2 173d 4ce7 25bc d432 3ebd 3714 933c
000000c0: c43d 07bd 5bb5 213d 0000 0000 1b47 043c
000000d0: dac3 5539 8083 973b 15f6 0f3d 8162 0c3d
000000e0: e72a d93c e00e ea3b 8893 f43c 7a6e d73c
000000f0: da91 263d 1727 b6bb 465d 7f3b ed07 bf3c
00000100: 428c b6bc 0000 0000 395f c5bc a6a2 a83c
00000110: 81db 49bc 2ee2 b6ba

linear.1.weight f4 [70, 70]
-0.18402609 0.08010499 0.15911706 -0.08428439 0.18118331 -0.16651392 -0.06312988 0.15192719
0.012764501 -0.1733279 0.008775367 -0.23219132 -0.060014155 -0.054968476 -0.043649554 -0.21546587
-0.108229525 0.054949895 0.014543944 0.04474482 0.13160245 -0.04410086 -0.06108997 0.055916846
-0.043898605 -0.1637559 0.022161596 0.1555802 0.037962005 -0.20236334 0.07343002 -0.07145532
-0.05926993 0.0018424254 -0.07827463 -0.16272907 -0.13891779 0.07738655 0.05659288 -0.13115993
-0.09552619 -0.1464165 0.0038164384 -0.06769719 0.008394133 0.2659515 0.18458329 -0.099593475
-0.21257058 0.21793991 -0.001514378 -0.05812909 0.22163257 0.08930841 -0.08748298 0.14288428
0.13671617 0.05458562 -0.19579521 -0.16177937 0.05555646 -0.063862644 0.0073034437 0.07851557
-0.0500464 0.10418389 -0.03240908 0.21014827 0.05724694 -0.080043636 -0.045671005 0.017560534
-0.12151385 -0.124112785 0.057785437 -0.017735425 0.19898288 -0.029445719 0.15472668 0.046036072
0.061096642 0.22748402 -0.17235367 -0.21534939 0.07191959 -0.17050406 -0.10722548 -0.039818484
0.08409506 -0.29851478 0.26041973 -0.025907587 0.10955349 0.17152773 -0.10198058 0.1427119
-0.04317038 -0.20021646 -0.22866486 0.058136348 -0.03292601 0.09110468 0.24376363 0.07447303
0.029154519 -0.11887414 -0.026518198 0.08267901 0.009318555 0.06405638 0.048226703 0.0038599218
-0.056424897 0.24017107 -0.021736639 -0.029085105 -0.15779257 -0.0013416697 -0.03892524 -0.062479325
-0.059560906 -0.046989985 -0.038693268 -0.021452105 0.0021577459 0.1468108 -0.06260377 -0.036007475
0.13099954 -0.020951588 0.01801664 0.2059141 -0.13558394 0.05880257 0.15381657 -0.06797814
-0.24077323 -0.14636499 -0.097331375 0.12558264 -0.01058481 0.06716209 -0.02048771 0.07898129
-0.028845131 0.06349183 0.05647439 0.064613424 0.11003836 0.049882747 -0.17379099 -0.11381499
0.09051623 -0.08547685 0.044227723 -0.15114757 -0.25200024 0.05038793 0.18900667 0.081648506
-0.1717597 0.122677125 0.053782035 -0.033899155 -0.20998214 -0.04168426 -0.10012354 -0.055853553
0.2207861 -0.001538655 -0.05850092 0.06930595 -0.2236335 0.140974 0.018224783 -0.009163894
0.09042448 0.050165333 0.08640888 -0.20814712 -0.17702582 0.13327874 -0.12282252 -0.006731294
-0.32926914 0.03717642 0.14642121 0.06642483 -0.009103965 -0.22857483 -0.06496743 -0.14458156
0.023784172 0.103768855 -0.11070214 0.16638426 -0.21490592 0.06300325 0.07950477 -0.09556946
-0.03245154 -0.0015449256 -0.14209782 -0.044967562 -0.15919486 0.021418585 -0.17770624 0.034763824
0.102268115 -0.1289984 0.022629576 0.15188587 0.021351466 0.050159506 0.06931536 -0.049307603
0.08233918 -0.04357173 -0.06912531 -0.17729545 -0.21615148 0.18508118 -0.02393323 -0.23711893
0.13467506 0.039042294 0.05331971 0.03130296 0.018665655 -0.07720458 -0.077150665 -0.004949234
-0.11728981 -0.12044149 -0.22987142 -0.30744392 -0.08974266 0.09268654 -0.14689338 0.052785512
-0.091505244 -0.101178005 -0.20439336 -0.046225186 0.0020904047 0.11845007 0.28758448 0.04067881
0.13954069 -0.0048592077 0.035660245 0.15357208 -0.039695926 0.070159264 -0.385419 0.03558344
00000000: 5671 3cbe 160e a43d 95ef 223e 4b9d acbd
00000010: 1e88 393e a082 2abe 3d4a 81bd cd92 1b3e
00000020: 3322 513c de7c 31be 8fc6 0f3c 90c3 6dbe
00000030: 67d1 75bd a026 61bd e0c9 32bd 16a3 5cbe
00000040: 71a7 ddbd 2413 613d b949 6e3c 5846 373d
00000050: cbc2 063e 1aa3 34bd 7a39 7abd 1009 653d
00000060: 06cf 33bd a0af 27be 3c8c b53c 6a50 1f3e
00000070: 0c7e 1b3d 5638 4fbe 7a62 963d 2b57 92bd
00000080: 07c5 72bd 8a7d f13a 734e a0bd 73a2 26be
00000090: 7740 0ebe d77c 9e3d f0cd 673d ca4e 06be
000000a0: 3ca3 c3bd 35ee 15be 361d 7a3b d3a4 8abd
000000b0: 8c87 093c cc2a 883e 6703 3d3e aaf7 cbbd
000000c0: 1aac 59be a42b 5f3e 187e c6ba c518 6ebd
000000d0: a6f3 623e 54e7 b63d 472a b3bd 4250 123e
000000e0: 53ff 0b3e 2c95 5f3d 8a7e 48be 7ea9 25be
000000f0: 2c8f 633d 6bca 82bd ba51 ef3b c5cc a03d
00000100: 74fd 4cbd 5d5e d53d 62bf 04bd 1c31 573e
00000110: c47b 6a3d ebed a3bd 8511 3bbd 1cdb 8f3c
00000120: 41dc f8bd d82e febd 6cb0 6c3d e249 91bc
00000130: 2bc2 4b3e 2638 f1bc ac70 1e3e 5290 3c3d
00000140: 7940 7a3d 92f1 683e 7b7d 30be 8d84 5cbe
00000150: 944a 933d 9e98 2ebe 0899 dbbd b518 23bd
00000160: 083a ac3d eed6 98be bc55 853e 263c d4bc
00000170: 955d e03d f7a4 2f3e 32db d0bd 1123 123e
00000180: 6dd3 30bd 8b05 4dbe 1f27 6abe 6120 6e3d
00000190: 6ddd 06bd 1795 ba3d 2c9d 793e 5185 983d
000001a0: 75d5 ee3c 4974 f3bd b13c d9bc 9d53 a93d
000001b0: daac 183c fe2f 833d 5d89 453d bef6 7c3b
000001c0: cb1d 67bd 68ef 753e 0911 b2bc e343 eebc
000001d0: 6094 21be f7da afba 1370 1fbd 52ea 7fbd
000001e0: 23f6 73bd 9278 40bd d57c 1ebd 53bc afbc
000001f0: f868 0d3b 9255 163e 6836 80bd 937c 13bd
00000200: be24 063e aaa2 abbc a297 933c 25db 523e
00000210: 84d6 0abe f7da 703d 1782 1d3e 2038 8bbd
00000220: 428d 76be b4e0 15be ac55 c7bd bc98 003e
00000230: e96b 2dbc 478c 893d d8d5 a7bc f1c0 a13d
00000240: a04c ecbc 0108 823d b151 673d 0b54 843d
00000250: cb5b e13d da51 4c3d 44f6 31be d517 e9bd
00000260: 9360 b93d 7d0e afbd 2128 353d 6ec6 1abe
00000270: 2d06 81be 9363 4e3d f78a 413e 5537 a73d
00000280: c6e1 2fbe 253e fb3d 8d4a 5c3d d7d9 0abd
00000290: 8f05 57be 1dbd 2abd 920d cdbd b2c6 64bd
000002a0: c015 623e b2ac c9ba a99e 6fbd 47f0 8d3d
000002b0: 2e00 65be 7d5b 103e 244c 953c 2824 16bc
000002c0: 7830 b93d 2a7a 4d3d 24f7 b03d 8524 55be
000002d0: 4246 35be 397a 083e 608a fbbd 3092 dcbb
000002e0: f795 a8be 4d46 183d 71ef 153e be09 883d
000002f0: cc28 15bc 850f 6abe a50d 85bd 300d 14be
00000300: 06d7 c23c c484 d43d ceb7 e2bd a360 2a3e
00000310: 4c10 5cbe d907 813d 66d3 a23d ecb9 c3bd
00000320: e8eb 04bd 1a7f caba 1782 11be e82f 38bd
00000330: fa03 23be 0776 af3c a0f8 35be 8364 0e3d
00000340: f271 d13d 2818 04be a961 b93c f887 1b3e
00000350: 45e9 ae3c 0e74 4d3d 36f5 8d3d c5f6 49bd
00000360: 72a1 a83d 4578 32bd 9291 8dbd f08c 35be
00000370: d056 5dbe ec85 3d3e 9f0f c4bc 4ecf 72be
00000380: 42e8 093e d0ea 1f3d c565 5a3d 8837 003d
00000390: b7e8 983c 6f1d 9ebd 2b01 9ebd 2f2d a2bb
000003a0: a435 f0bd 07aa f6bd 6a63 6bbe 4a69 9dbe
000003b0: 00cb b7bd 71d2 bd3d 386b 16be 9f35 583d
000003c0: 1a67 bbbd 6a36 cfbd 7e4c 51be 9f56 3dbd
000003d0: 2cff 083b f395 f23d 463e 933e d39e 263d
000003e0: c1e3 0e3e fd39 9fbb 7a10 123d 0042 1d3e
000003f0: 3298 22bd a9af 8f3d a455 c5be f1bf 113d

linear.1.bias f4 [70]
-0.0008979932 -0.03272261 -0.012556842 0.0 0.024068465 0.0044520344 -0.0055588856 -0.006315599
0.036021043 0.016208742 -0.010345263 0.013902172 0.0044245427 0.0064432286 -0.007017097 -0.025795652
0.0048185145 0.0 0.009255526 0.041262854 -0.00465096 0.020111289 0.05131987 0.019256532
0.0007440087 0.030226903 0.04366943 -0.022181468 -0.007039392 0.0039535253 0.04393381 0.01654506
-0.0116168605 -0.006005505 0.013831513 -0.0076982016 -0.022634232 0.037501156 0.0 0.040351912
0.0 -0.011120589 0.035241142 0.0 0.0067299907 -0.004385132 0.008174912 -0.01967233
0.022769146 -0.02513 0.0031776796 0.0009008431 -0.020436438 0.011087042 0.014126286 0.075186536
0.04671444 -0.040858198 -0.00071428966 -0.009934047 0.0 0.01214387 0.07538804 0.041484255
-0.011856771 0.023752196 0.009696641 -0.027600229 0.042848498 -0.006705126
00000000: 4e67 6bba 2508 06bd 36bb 4dbc 0000 0000
00000010: 3b2b c53c 5fe2 913b 5027 b6bb 16f3 cebb
00000020: cd8a 133d 32c8 843c 2e7f 29bc f0c5 633c
00000030: c1fb 903b b821 d33b adef e5bb 6751 d3bc
00000040: a1e4 9d3b 0000 0000 7da4 173c 3d03 293d
00000050: 1567 98bb 6ec0 a43c c934 523d e0bf 9d3c
00000060: 9409 433a 699e f73c b7de 323d e9b5 b5bc
00000070: b3aa e6bb 938c 813b f0f3 333d 8189 873c
00000080: a554 3ebc d4c9 c4bb 929d 623c 3241 fcbb
00000090: 6d6b b9bc d09a 193d 0000 0000 0c48 253d
000000a0: 0000 0000 2233 36bc 0459 103d 0000 0000
000000b0: 4187 dc3b 27b1 8fbb 11f0 053c de27 a1bc
000000c0: 5c86 ba3c 6edd cdbc 9e40 503b 8f26 6c3a
000000d0: 516a a7bc 6da6 353c f071 673c 66fb 993d
000000e0: a457 3f3d ed5a 27bd 2b3f 3bba 6ac2 22bc
000000f0: 0000 0000 15f7 463c 0b65 9a3d 65eb 293d
00000100: e742 42bc f793 c23c a9de 1e3c e019 e2bc
00000110: e881 2f3d acb6 dbbb

linear.2.weight f4 [70, 70]
0.017232927 -0.0064457725 -0.060860157 0.019988207 -0.12289736 0.061838046 -0.21198864 0.022474963
0.029741682 -0.1049922 -0.17720115 -0.29523188 0.017399639 -0.06033025 0.036678083 -0.05945104
0.080362506 0.021806702 -0.016338464 0.08205921 0.2110611 -0.16421649 0.06688144 -0.11258464
-0.022890901 -0.19829383 0.018269649 0.04116866 0.082019426 -0.023136698 0.118467376 0.21683791
-0.15900609 -0.095460854 0.044467524 0.05738585 -0.1702298 0.12108195 -0.01683847 -0.09907341
0.20109436 -0.061025996 0.0538474 -0.089021675 0.07568029 -0.15940104 -0.08045213 -0.14819078
-0.043579433 -0.014979636 -0.04607436 0.21893485 -0.048832484 -0.15032843 0.21234381 -0.03062949
-0.17825307 0.2618936 0.16085431 0.2521044 0.010020731 -0.20185338 -0.09682777 0.107320644
-0.03587489 0.15083429 0.13316791 -0.12602445 -0.06367532 0.08427115 0.0033710692 -0.05545106
-0.010471244 -0.018769639 0.1546742 0.080872774 0.0071505583 -0.0757258 0.111794434 -0.06727145
0.025919372 -0.22979152 0.02038405 -0.20418678 -0.00081111304 -0.03905355 0.04513205 -0.15075669
0.09866904 0.05892303 0.024502972 0.012395967 -0.038541004 0.049099572 -0.22238715 0.0873623
0.1579898 0.18661065 0.0781296 0.08026128 0.0693274 -0.018572181 0.015093928 -0.019250859
-0.3273559 -0.09415232 -0.0660684 0.011333463 0.027745686 -0.054735087 0.06373209 0.006774292
0.11728956 -0.05088474 -0.09791935 0.06090126 0.12422002 -0.046313748 0.27053982 0.028390404
0.16480911 0.12018706 -0.015501398 -0.0817183 0.046307698 -0.05733729 0.048193954 0.13157715
0.028648159 0.096208274 -0.028356694 -0.28971142 0.16687454 -0.056004755 0.0024376258 0.13296571
-0.07928923 -0.09965356 -0.05109283 0.01678419 -0.13661684 -0.10893369 -0.11748901 -0.01229849
0.1206868 -0.023951441 -0.17978166 0.056441717 0.081983164 0.09640264 -0.15530519 -0.15923227
0.08713231 0.00050423347 -0.12314633 0.26266885 -0.21185768 0.18559808 0.0336237 0.1908874
0.0044887112 -0.004569176 -0.09993484 0.1559713 -0.086472124 0.117462575 0.23514047 -0.020674646
-0.0042625368 0.30518815 0.24022396 0.052426733 -0.03798392 0.08264727 0.12564081 -0.044773847
-0.06729834 -0.11107362 0.3301465 -0.033000547 -0.23580422 -0.09302881 0.08921896 0.12505011
-0.14130622 0.05924245 -0.018220536 0.027380275 -0.018249229 0.14931156 -0.12784694 -0.1086223
0.069115594 -0.074734464 -0.072723106 -0.05892193 -0.19291234 0.091505095 -0.12469302 0.17242002
-0.03586689 0.04665516 0.2517797 -0.0030790642 -0.075851806 0.10827767 -0.123894975 -0.33880636
0.03831781 -0.039345924 0.16697988 0.11460868 -0.06915441 0.16308004 0.07328579 0.023393529
-0.1596686 0.051812306 0.06273563 -0.107804984 0.106699675 0.13954477 -0.13781132 -0.0070841433
-0.10884882 0.25232366 -0.1594766 -0.041434918 0.15098603 0.14531267 0.08927826 -0.16350098
0.0498746 0.04139314 0.09436515 -0.07619567 0.14268117 -0.061687443 0.074636504 -0.037462365
-0.11113539 0.0064946706 -0.3556674 -0.120201185 0.13211788 0.101238705 -0.1821444 0.07076412
-0.08308868 0.17177562 0.054388467 0.11856496 0.0887919 0.04995954 -0.06625983 0.10873799
00000000: 112c 8d3c 0f37 d3bb 8048 79bd 4fbe a33c
00000010: 9cb1 fbbd e449 7d3d 8d13 59be 6a1d b83c
00000020: d4a4 f33c 2706 d7bd 3874 35be a228 97be
00000030: b089 8e3c da1c 77bd c23b 163d ef82 73bd
00000040: 1995 a43d f8a3 b23c 3ed8 85bc a90e a83d
00000050: 6720 583e 5e28 28be 23f9 883d c792 e6bd
00000060: b385 bbbc 8a0d 4bbe 3baa 953c 78a0 283d
00000070: cdf9 a73d 2c89 bdbc 069f f23d c20a 5e3e
00000080: 7ed2 22be fb80 c3bd 9423 363d 6d0d 6b3d
00000090: b850 2ebe d0f9 f73d d5f0 89bc 00e7 cabd
000000a0: aeeb 4d3e 65f6 79bd 178f 5c3d ff50 b6bd
000000b0: 45fe 9a3d 073a 23be 16c4 a4bd 53bf 17be
000000c0: 5980 32bd 266d 75bc 78b8 3cbd 7530 603e
000000d0: 9204 48bd b2ef 19be a870 593e b2ea fabc
000000e0: f987 36be eb16 863e feb6 243e d413 813e
000000f0: fe2d 243c a7b2 4ebe a34d c6bd edca db3d
00000100: 8cf1 12bd 4e74 1a3e 2b5d 083e 8e0c 01be
00000110: 3568 82bd 5a96 ac3d 28ed 5c3b a720 63bd
00000120: 958f 2bbc c9c2 99bc ea62 1e3e a0a0 a53d
00000130: 3b4f ea3b 2116 9bbd 7bf4 e43d 9dc5 89bd
00000140: dd54 d43c 784e 6bbe 74fc a63c 5716 51be
00000150: e0a0 54ba 9ef6 1fbd 62dc 383d f65f 1abe
00000160: fe12 ca3d 4659 713d 75ba c83c 7418 4b3c
00000170: 2cdd 1dbd a21c 493d 75b9 63be 01eb b23d
00000180: 14c8 213e dd16 3f3e 6902 a03d 0760 a43d
00000190: 86fb 8d3d b024 98bc 864c 773c fab3 9dbc
000001a0: 319b a7be eed2 c0bd df4e 87bd fdaf 393c
000001b0: ec4a e33c e631 60bd f885 823d e1fa dd3b
000001c0: 8235 f03d 846c 50bd f189 c8bd 9973 793d
000001d0: 1167 fe3d 7cb3 3dbd 3284 8a3e fe92 e83c
000001e0: b8c3 283e a224 f63d 93f9 7dbc ed5b a7bd
000001f0: 24ad 3d3d 82da 6abd 0667 453d 29bc 063e
00000200: 8baf ea3c d808 c53d 4c4c e8bc 0e55 94be
00000210: 29e1 2a3e 3e65 65bd 93c0 1f3b 2a28 083e
00000220: 6462 a2bd 2a17 ccbd b746 51bd ff7e 893c
00000230: 49e5 0bbe a018 dfbd 149e f0bd 9b7f 49bc
00000240: a42a f73d d035 c4bc af18 38be 6e2f 673d
00000250: cae6 a73d bf6e c53d 5308 1fbe c90d 23be
00000260: 6d72 b23d 892e 043a 2534 fcbd 887c 863e
00000270: 38f1 58be 6c0d 3e3e 01b9 093d fd77 433e
00000280: 0a16 933b 07b9 95bb a3aa ccbd f1b6 1f3e
00000290: 4c18 b1bd 3890 f03d aac8 703e e05d a9bc
000002a0: c0ac 8bbb 9f41 9c3e 45fd 753e 6abd 563d
000002b0: 0795 1bbd f942 a93d fca7 003e c864 37bd
000002c0: b6d3 89bd 917a e3bd f608 a93e 952b 07bd
000002d0: a976 71be e485 bebd 6eb8 b63d 230d 003e
000002e0: 94b2 10be 36a8 723d 3c43 95bc 994c e03c
000002f0: 687f 95bc 21e5 183e 4fea 02be 5e75 debd
00000300: 7a8c 8d3d 620e 99bd daef 94bd 1f58 71bd
00000310: d08a 45be 0667 bb3d 0e5f ffbd e08e 303e
00000320: 29e9 12bd 7b19 3f3d 45e9 803e 20ca 49bb
00000330: 3158 9bbd afc0 dd3d a6bc fdbd 0778 adbe
00000340: 23f3 1c3d 3129 21bd c6fc 2a3e f5b7 ea3d
00000350: d4a0 8dbd 74fe 263e dc16 963d c9a3 bf3c
00000360: 2a80 23be 2439 543d 8a7b 803d dcc8 dcbd
00000370: 5c85 da3d d3e4 0e3e 691e 0dbe 1a22 e8bb
00000380: 21ec debd 9130 813e d54d 23be a9b7 29bd
00000390: 159c 1a3e d8cc 143e 85d7 b63d cd6c 27be
000003a0: 4f49 4c3d da8b 293d 8442 c13d 7a0c 9cbd
000003b0: 031b 123e f9ab 7cbd 06db 983d 2372 19bd
000003c0: f49a e3bd 3fd1 d43b 0a1a b6be 0a2c f6bd
000003d0: e949 073e 3d56 cf3d 1084 3abe c7ec 903d
000003e0: 662a aabd f3e5 2f3e 71c6 5e3d 30d2 f23d
000003f0: 87d8 b53d 60a2 4c3d 3cb3 87bd 06b2 de3d

linear.2.bias f4 [70]
0.004565538 0.04303377 0.031665433 0.015358406 -0.005347047 0.0065687452 -0.01686628 0.011890715
0.06351648 -0.024476914 -0.0033825072 0.0 0.027876994 -0.017436495 -0.016642004 -0.003599368
0.0055207647 0.011669965 0.016682357 0.0 0.035383128 0.015000359 -0.009890181 0.04044088
-0.009841119 -0.02580342 0.0 0.0077503487 0.020170385 -0.011150378 0.02752179 0.29300663
-0.03527439 -0.010256655 0.012798863 -0.009515717 -0.033176225 -0.018109549 -0.049411967 -0.010121671
0.016441485 -0.009468397 0.04550454 0.015044036 0.007387937 0.012311368 0.031334016 0.010898482
0.015835918 -0.019795135 0.0015107797 0.029071717 0.015541937 0.025651844 0.027808001 0.01591367
0.03079629 -0.023111219 0.0 -0.008667215 0.011849895 0.05226668 0.046462007 0.021779282
0.030966314 -0.010558083 0.028721841 -0.012196782 0.018678313 -0.016366761
00000000: 829a 953b 2e44 303d 9db3 013d d3a1 7b3c
00000010: 4836 afbb a13e d73b 272b 8abc 46d1 423c
00000020: ee14 823d cf83 c8bc 0ead 5dbb 0000 0000
00000030: 4b5e e43c fbd6 8ebc d054 88bc 60e3 6bbb
00000040: 88e7 b43b 6233 3f3c 70a9 883c 0000 0000
00000050: e6ed 103d 11c4 753c 6d0a 22bc 56a5 253d
00000060: a53c 21bc b261 d3bc 0000 0000 a3f6 fd3b
00000070: 5d3c a53c 13b0 36bc 6075 e13c f704 963e
00000080: e17b 10bd 870b 28bc 53b2 513c cfe7 1bbc
00000090: cbe3 07bd 7a5a 94bc 3464 4abd 5dd5 25bc
000000a0: 4bb0 863c 5621 1bbc f862 3a3d 437b 763c
000000b0: 8216 f23b 9fb5 493c 1958 003d 8c8f 323c
000000c0: 54ba 813c 6829 a2bc 5b05 c63a cf27 ee3c
000000d0: 9ca3 7e3c d123 d23c 9bcd e33c 635d 823c
000000e0: 8048 fc3c bd53 bdbc 0000 0000 ef00 0ebc
000000f0: 1026 423c 9615 563d f24e 3e3d 776a b23c
00000100: 11ad fd3c cffb 2cbc 114a eb3c 03d5 47bc
00000110: 4303 993c 9613 86bc

linearOut.weight f4 [1, 70]
0.21257222 0.0439435 0.10876781 0.2588893 0.16098349 -0.016763281 0.19387192 -0.09773374
0.26770934 0.015626047 -0.029061148 -0.08064337 0.0150155295 0.101836696 -0.013771432 -0.2890379
-0.05330938 0.10533255 -0.19622576 0.1773131 -0.11169908 -0.13777468 -0.19469957 -0.37049118
-0.055541065 0.22745955 0.04522704 -0.15590094 0.13638343 0.13546157 -0.10218231 -0.2883385
-0.1292365 -0.06940108 -0.20558664 0.038325865 0.17790002 -0.025243225 -0.07470843 -0.07070997
-0.23425572 0.31746662 0.18023664 0.006671777 0.060212348 -0.10344501 0.05384143 -0.12852903
0.04581535 0.14034571 -0.14010608 0.18719631 -0.16359828 0.002345097 0.40489882 0.11541204
-0.28181332 -0.10360879 0.021957604 -0.023262374 0.29391673 0.13212973 -0.12318426 0.14571904
-0.031206174 0.120164074 0.30974323 -0.26222572 -0.13492565 0.25621247
00000000: 88ac 593e 19fe 333d a8c1 de3d 238d 843e
00000010: dbd8 243e 2653 89bc 5c86 463e a128 c8bd
00000020: 3311 893e 3202 803c a511 eebc 5a28 a5bd
00000030: b203 763c c28f d03d 93a1 61bc c7fc 93be
00000040: f05a 5abd 98b8 d73d 68ef 48be 9191 353e
00000050: 7dc2 e4bd ce14 0dbe 535f 47be 05b1 bdbe
00000060: 077f 63bd 28eb 683e fd3f 393d 7fa4 1fbe
00000070: 19a8 0b3e 70b6 0a3e f544 d1bd 1ba1 93be
00000080: 9356 04be 2722 8ebd 4e85 52be 95fb 1c3d
00000090: 6c2b 363e e1ca cebc bc00 99bd 64d0 90bd
000000a0: bbe0 6fbe fc8a a23e f48f 383e ec9e da3b
000000b0: 39a1 763d fada d3bd d588 5c3d 1d9d 03be
000000c0: e0a8 3b3d c9b6 0f3e f877 0fbe 64b0 3f3e
000000d0: 4f86 27be 33b0 193b e64e cf3e 265d ec3d
000000e0: d649 90be d830 d4bd 6fe0 b33c bc90 bebc
000000f0: 417c 963e 044d 073e 0848 fcbd 5f37 153e
00000100: 17a4 ffbc 9518 f63d aa96 9e3e 7342 86be
00000110: f329 0abe 482e 833e
